…
 items)\n","x: SegmentationItemList\n","Image (3, 128, 227),Image (3, 128, 227),Image (3, 128, 227),Image (3, 128, 227),Image (3, 128, 227)\n","y: SegmentationLabelList\n","ImageSegment (1, 128, 227),ImageSegment (1, 128, 227),ImageSegment (1, 128, 227),ImageSegment (1, 128, 227),ImageSegment (1, 128, 227)\n","Path: /content/gdrive/My Drive/train;\n","\n","Valid: LabelList (0 items)\n","x: SegmentationItemList\n","\n","y: SegmentationLabelList\n","\n","Path: /content/gdrive/My Drive/train;\n","\n","Test: None, model=DynamicUnet(\n","  (layers): ModuleList(\n","    (0): Sequential(\n","      (0): Conv2d(3, 64, kernel_size=(7, 7), stride=(2, 2), padding=(3, 3), bias=False)\n","      (1): BatchNorm2d(64, eps=1e-05, momentum=0.1, affine=True, track_running_stats=True)\n","      (2): ReLU(inplace)\n","      (3): MaxPool2d(kernel_size=3, stride=2, padding=1, dilation=1, ceil_mode=False)\n","      (4): Sequential(\n","        (0): BasicBlock(\n","          (conv1): Conv2d(64, 64, kernel_size=(3, 3), stride=(1, 1), padding=(1, 1), bias=False)\n","          (bn1): BatchNorm2d(64, eps=1e-05, momentum=0.1, affine=True, track_running_stats=True)\n","          (relu): ReLU(inplace)\n","          (conv2): Conv2d(64, 64, kernel_size=(3, 3), stride=(1, 1), padding=(1, 1), bias=False)\n","          (bn2): BatchNorm2d(64, eps=1e-05, momentum=0.1, affine=True, track_running_stats=True)\n","        )\n","        (1): BasicBlock(\n","          (conv1): Conv2d(64, 64, kernel_size=(3, 3), stride=(1, 1), padding=(1, 1), bias=False)\n","          (bn1): BatchNorm2d(64, eps=1e-05, momentum=0.1, affine=True, track_running_stats=True)\n","          (relu): ReLU(inplace)\n","          (conv2): Conv2d(64, 64, kernel_size=(3, 3), stride=(1, 1), padding=(1, 1), bias=False)\n","          (bn2): BatchNorm2d(64, eps=1e-05, momentum=0.1, affine=True, track_running_stats=True)\n","        )\n","        (2): BasicBlock(\n","          (conv1): Conv2d(64, 64, kernel_size=(3, 3), stride=(1, 1), padding=(1, 1), bias=False)\n","          (bn1): BatchNorm2d(64, eps=1e-05, momentum=0.1, affine=True, track_running_stats=True)\n","          (relu): ReLU(inplace)\n","          (conv2): Conv2d(64, 64, kernel_size=(3, 3), stride=(1, 1), padding=(1, 1), bias=False)\n","          (bn2): BatchNorm2d(64, eps=1e-05, momentum=0.1, affine=True, track_running_stats=True)\n","        )\n","      )\n","      (5): Sequential(\n","        (0): BasicBlock(\n","          (conv1): Conv2d(64, 128, kernel_size=(3, 3), stride=(2, 2), padding=(1, 1), bias=False)\n","          (bn1): BatchNorm2d(128, eps=1e-05, momentum=0.1, affine=True, track_running_stats=True)\n","          (relu): ReLU(inplace)\n","          (conv2): Conv2d(128, 128, kernel_size=(3, 3), stride=(1, 1), padding=(1, 1), bias=False)\n","          (bn2): BatchNorm2d(128, eps=1e-05, momentum=0.1, affine=True, track_running_stats=True)\n","          (downsample): Sequential(\n","            (0): Conv2d(64, 128, kernel_size=(1, 1), stride=(2, 2), bias=False)\n","            (1): BatchNorm2d(128, eps=1e-05, momentum=0.1, affine=True, track_running_stats=True)\n","          )\n","        )\n","        (1): BasicBlock(\n","          (conv1): Conv2d(128, 128, kernel_size=(3, 3), stride=(1, 1), padding=(1, 1), bias=False)\n","          (bn1): BatchNorm2d(128, eps=1e-05, momentum=0.1, affine=True, track_running_stats=True)\n","          (relu): ReLU(inplace)\n","          (conv2): Conv2d(128, 128, kernel_size=(3, 3), stride=(1, 1), padding=(1, 1), bias=False)\n","          (bn2): BatchNorm2d(128, eps=1e-05, momentum=0.1, affine=True, track_running_stats=True)\n","        )\n","        (2): BasicBlock(\n","          (conv1): Conv2d(128, 128, kernel_size=(3, 3), stride=(1, 1), padding=(1, 1), bias=False)\n","          (bn1): BatchNorm2d(128, eps=1e-05, momentum=0.1, affine=True, track_running_stats=True)\n","          (relu): ReLU(inplace)\n","          (conv2): Conv2d(128, 128, kernel_size=(3, 3), stride=(1, 1), padding=(1, 1), bias=False)\n","          (bn2): BatchNorm2d(128, eps=1e-05, momentum=0.1, affine=True, track_running_stats=True)\n","        )\n","        (3): BasicBlock(\n","          (conv1): Conv2d(128, 128, kernel_size=(3, 3), stride=(1, 1), padding=(1, 1), bias=False)\n","          (bn1): BatchNorm2d(128, eps=1e-05, momentum=0.1, affine=True, track_running_stats=True)\n","          (relu): ReLU(inplace)\n","          (conv2): Conv2d(128, 128, kernel_size=(3, 3), stride=(1, 1), padding=(1, 1), bias=False)\n","          (bn2): BatchNorm2d(128, eps=1e-05, momentum=0.1, affine=True, track_running_stats=True)\n","        )\n","      )\n","      (6): Sequential(\n","        (0): BasicBlock(\n","          (conv1): Conv2d(128, 256, kernel_size=(3, 3), stride=(2, 2), padding=(1, 1), bias=False)\n","          (bn1): BatchNorm2d(256, eps=1e-05, momentum=0.1, affine=True, track_running_stats=True)\n","          (relu): ReLU(inplace)\n","          (conv2): Conv2d(256, 256, kernel_size=(3, 3), stride=(1, 1), padding=(1, 1), bias=False)\n","          (bn2): BatchNorm2d(256, eps=1e-05, momentum=0.1, affine=True, track_running_stats=True)\n","          (downsample): Sequential(\n","            (0): Conv2d(128, 256, kernel_size=(1, 1), stride=(2, 2), bias=False)\n","            (1): BatchNorm2d(256, eps=1e-05, momentum=0.1, affine=True, track_running_stats=True)\n","          )\n","        )\n","        (1): BasicBlock(\n","          (conv1): Conv2d(256, 256, kernel_size=(3, 3), stride=(1, 1), padding=(1, 1), bias=False)\n","          (bn1): BatchNorm2d(256, eps=1e-05, momentum=0.1, affine=True, track_running_stats=True)\n","          (relu): ReLU(inplace)\n","          (conv2): Conv2d(256, 256, kernel_size=(3, 3), stride=(1, 1), padding=(1, 1), bias=False)\n","          (bn2): BatchNorm2d(256, eps=1e-05, momentum=0.1, affine=True, track_running_stats=True)\n","        )\n","        (2): BasicBlock(\n","          (conv1): Conv2d(256, 256, kernel_size=(3, 3), stride=(1, 1), padding=(1, 1), bias=False)\n","          (bn1): BatchNorm2d(256, eps=1e-05, momentum=0.1, affine=True, track_running_stats=True)\n","          (relu): ReLU(inplace)\n","          (conv2): Conv2d(256, 256, kernel_size=(3, 3), stride=(1, 1), padding=(1, 1), bias=False)\n","          (bn2): BatchNorm2d(256, eps=1e-05, momentum=0.1, affine=True, track_running_stats=True)\n","        )\n","        (3): BasicBlock(\n","          (conv1): Conv2d(256, 256, kernel_size=(3, 3), stride=(1, 1), padding=(1, 1), bias=False)\n","          (bn1): BatchNorm2d(256, eps=1e-05, momentum=0.1, affine=True, track_running_stats=True)\n","          (relu): ReLU(inplace)\n","          (conv2): Conv2d(256, 256, kernel_size=(3, 3), stride=(1, 1), padding=(1, 1), bias=False)\n","          (bn2): BatchNorm2d(256, eps=1e-05, momentum=0.1, affine=True, track_running_stats=True)\n","        )\n","        (4): BasicBlock(\n","          (conv1): Conv2d(256, 256, kernel_size=(3, 3), stride=(1, 1), padding=(1, 1), bias=False)\n","          (bn1): BatchNorm2d(256, eps=1e-05, momentum=0.1, affine=True, track_running_stats=True)\n","          (relu): ReLU(inplace)\n","          (conv2): Conv2d(256, 256, kernel_size=(3, 3), stride=(1, 1), padding=(1, 1), bias=False)\n","          (bn2): BatchNorm2d(256, eps=1e-05, momentum=0.1, affine=True, track_running_stats=True)\n","        )\n","        (5): BasicBlock(\n","          (conv1): Conv2d(256, 256, kernel_size=(3, 3), stride=(1, 1), padding=(1, 1), bias=False)\n","          (bn1): BatchNorm2d(256, eps=1e-05, momentum=0.1, affine=True, track_running_stats=True)\n","          (relu): ReLU(inplace)\n","          (conv2): Conv2d(256, 256, kernel_size=(3, 3), stride=(1, 1), padding=(1, 1), bias=False)\n","          (bn2): BatchNorm2d(256, eps=1e-05, momentum=0.1, affine=True, track_running_stats=True)\n","        )\n","      )\n","      (7): Sequential(\n","        (0): BasicBlock(\n","          (conv1): Conv2d(256, 512, kernel_size=(3, 3), stride=(2, 2), padding=(1, 1), bias=False)\n","          (bn1): BatchNorm2d(512, eps=1e-05, momentum=0.1, affine=True, track_running_stats=True)\n","          (relu): ReLU(inplace)\n","          (conv2): Conv2d(512, 512, kernel_size=(3, 3), stride=(1, 1), padding=(1, 1), bias=False)\n","          (bn2): BatchNorm2d(512, eps=1e-05, momentum=0.1, affine=True, track_running_stats=True)\n","          (downsample): Sequential(\n","            (0): Conv2d(256, 512, kernel_size=(1, 1), stride=(2, 2), bias=False)\n","            (1): BatchNorm2d(512, eps=1e-05, momentum=0.1, affine=True, track_running_stats=True)\n","          )\n","        )\n","        (1): BasicBlock(\n","          (conv1): Conv2d(512, 512, kernel_size=(3, 3), stride=(1, 1), padding=(1, 1), bias=False)\n","          (bn1): BatchNorm2d(512, eps=1e-05, momentum=0.1, affine=True, track_running_stats=True)\n","          (relu): ReLU(inplace)\n","          (conv2): Conv2d(512, 512, kernel_size=(3, 3), stride=(1, 1), padding=(1, 1), bias=False)\n","          (bn2): BatchNorm2d(512, eps=1e-05, momentum=0.1, affine=True, track_running_stats=True)\n","        )\n","        (2): BasicBlock(\n","          (conv1): Conv2d(512, 512, kernel_size=(3, 3), stride=(1, 1), padding=(1, 1), bias=False)\n","          (bn1): BatchNorm2d(512, eps=1e-05, momentum=0.1, affine=True, track_running_stats=True)\n","          (relu): ReLU(inplace)\n","          (conv2): Conv2d(512, 512, kernel_size=(3, 3), stride=(1, 1), padding=(1, 1), bias=False)\n","          (bn2): BatchNorm2d(512, eps=1e-05, momentum=0.1, affine=True, track_running_stats=True)\n","        )\n","      )\n","    )\n","    (1): BatchNorm2d(512, eps=1e-05, momentum=0.1, affine=True, track_running_stats=True)\n","    (2): ReLU()\n","    (3): Sequential(\n","      (0): Sequential(\n","        (0): Conv2d(512, 1024, kernel_size=(3, 3), stride=(1, 1), padding=(1, 1))\n","        (1): ReLU(inplace)\n","      )\n","      (1): Sequential(\n","        (0): Conv2d(1024, 512, kernel_size=(3, 3), stride=(1, 1), padding=(1, 1))\n","        (1): ReLU(inplace)\n","      )\n","    )\n","    (4): UnetBlock(\n","      (shuf): PixelShuffle_ICNR(\n","        (conv): Sequential(\n","          (0): Conv2d(512, 1024, kernel_size=(1, 1), stride=(1, 1))\n","        )\n","        (shuf): PixelShuffle(upscale_factor=2)\n","        (pad): ReplicationPad2d((1, 0, 1, 0))\n","        (blur): AvgPool2d(kernel_size=2, stride=1, padding=0)\n","        (relu): ReLU(inplace)\n","      )\n","      (bn): BatchNorm2d(256, eps=1e-05, momentum=0.1, affine=True, track_running_stats=True)\n","      (conv1): Sequential(\n","        (0): Conv2d(512, 512, kernel_size=(3, 3), stride=(1, 1), padding=(1, 1))\n","        (1): ReLU(inplace)\n","      )\n","      (conv2): Sequential(\n","        (0): Conv2d(512, 512, kernel_size=(3, 3), stride=(1, 1), padding=(1, 1))\n","        (1): ReLU(inplace)\n","      )\n","      (relu): ReLU()\n","    )\n","    (5): UnetBlock(\n","      (shuf): PixelShuffle_ICNR(\n","        (conv): Sequential(\n","          (0): Conv2d(512, 1024, kernel_size=(1, 1), stride=(1, 1))\n","        )\n","        (shuf): PixelShuffle(upscale_factor=2)\n","        (pad): ReplicationPad2d((1, 0, 1, 0))\n","        (blur): AvgPool2d(kernel_size=2, stride=1, padding=0)\n","        (relu): ReLU(inplace)\n","      )\n","      (bn): BatchNorm2d(128, eps=1e-05, momentum=0.1, affine=True, track_running_stats=True)\n","      (conv1): Sequential(\n","        (0): Conv2d(384, 384, kernel_size=(3, 3), stride=(1, 1), padding=(1, 1))\n","        (1): ReLU(inplace)\n","      )\n","      (conv2): Sequential(\n","        (0): Conv2d(384, 384, kernel_size=(3, 3), stride=(1, 1), padding=(1, 1))\n","        (1): ReLU(inplace)\n","      )\n","      (relu): ReLU()\n","    )\n","    (6): UnetBlock(\n","      (shuf): PixelShuffle_ICNR(\n","        (conv): Sequential(\n","          (0): Conv2d(384, 768, kernel_size=(1, 1), stride=(1, 1))\n","        )\n","        (shuf): PixelShuffle(upscale_factor=2)\n","        (pad): ReplicationPad2d((1, 0, 1, 0))\n","        (blur): AvgPool2d(kernel_size=2, stride=1, padding=0)\n","        (relu): ReLU(inplace)\n","      )\n","      (bn): BatchNorm2d(64, eps=1e-05, momentum=0.1, affine=True, track_running_stats=True)\n","      (conv1): Sequential(\n","        (0): Conv2d(256, 256, kernel_size=(3, 3), stride=(1, 1), padding=(1, 1))\n","        (1): ReLU(inplace)\n","      )\n","      (conv2): Sequential(\n","        (0): Conv2d(256, 256, kernel_size=(3, 3), stride=(1, 1), padding=(1, 1))\n","        (1): ReLU(inplace)\n","      )\n","      (relu): ReLU()\n","    )\n","    (7): UnetBlock(\n","      (shuf): PixelShuffle_ICNR(\n","        (conv): Sequential(\n","          (0): Conv2d(256, 512, kernel_size=(1, 1), stride=(1, 1))\n","        )\n","        (shuf): PixelShuffle(upscale_factor=2)\n","        (pad): ReplicationPad2d((1, 0, 1, 0))\n","        (blur): AvgPool2d(kernel_size=2, stride=1, padding=0)\n","        (relu): ReLU(inplace)\n","      )\n","      (bn): BatchNorm2d(64, eps=1e-05, momentum=0.1, affine=True, track_running_stats=True)\n","      (conv1): Sequential(\n","        (0): Conv2d(192, 96, kernel_size=(3, 3), stride=(1, 1), padding=(1, 1))\n","        (1): ReLU(inplace)\n","      )\n","      (conv2): Sequential(\n","        (0): Conv2d(96, 96, kernel_size=(3, 3), stride=(1, 1), padding=(1, 1))\n","        (1): ReLU(inplace)\n","      )\n","      (relu): ReLU()\n","    )\n","    (8): PixelShuffle_ICNR(\n","      (conv): Sequential(\n","        (0): Conv2d(96, 384, kernel_size=(1, 1), stride=(1, 1))\n","      )\n","      (shuf): PixelShuffle(upscale_factor=2)\n","      (pad): ReplicationPad2d((1, 0, 1, 0))\n","      (blur): AvgPool2d(kernel_size=2, stride=1, padding=0)\n","      (relu): ReLU(inplace)\n","    )\n","    (9): Lambda()\n","    (10): MergeLayer()\n","    (11): SequentialEx(\n","      (layers): ModuleList(\n","        (0): Sequential(\n","          (0): Conv2d(99, 49, kernel_size=(3, 3), stride=(1, 1), padding=(1, 1))\n","          (1): ReLU(inplace)\n","        )\n","        (1): Sequential(\n","          (0): Conv2d(49, 99, kernel_size=(3, 3), stride=(1, 1), padding=(1, 1))\n","          (1): ReLU(inplace)\n","        )\n","        (2): MergeLayer()\n","      )\n","    )\n","    (12): Sequential(\n","      (0): Conv2d(99, 2, kernel_size=(1, 1), stride=(1, 1))\n","    )\n","  )\n","), opt_func=functools.partial(<class 'torch.optim.adam.Adam'>, betas=(0.9, 0.99)), loss_func=FlattenedLoss of CrossEntropyLoss(), metrics=[<function dice at 0x7fab798d3bf8>], true_wd=True, bn_wd=True, wd=0.001, train_bn=True, path=PosixPath('/content/gdrive/My Drive/train'), model_dir='models', callback_fns=[functools.partial(<class 'fastai.basic_train.Recorder'>, add_time=True, silent=False)], callbacks=[], layer_groups=[Sequential(\n","  (0): Conv2d(3, 64, kernel_size=(7, 7), stride=(2, 2), padding=(3, 3), bias=False)\n","  (1): BatchNorm2d(64, eps=1e-05, momentum=0.1, affine=True, track_running_stats=True)\n","  (2): ReLU(inplace)\n","  (3): MaxPool2d(kernel_size=3, stride=2, padding=1, dilation=1, ceil_mode=False)\n","  (4): Conv2d(64, 64, kernel_size=(3, 3), stride=(1, 1), padding=(1, 1), bias=False)\n","  (5): BatchNorm2d(64, eps=1e-05, momentum=0.1, affine=True, track_running_stats=True)\n","  (6): ReLU(inplace)\n","  (7): Conv2d(64, 64, kernel_size=(3, 3), stride=(1, 1), padding=(1, 1), bias=False)\n","  (8): BatchNorm2d(64, eps=1e-05, momentum=0.1, affine=True, track_running_stats=True)\n","  (9): Conv2d(64, 64, kernel_size=(3, 3), stride=(1, 1), padding=(1, 1), bias=False)\n","  (10): BatchNorm2d(64, eps=1e-05, momentum=0.1, affine=True, track_running_stats=True)\n","  (11): ReLU(inplace)\n","  (12): Conv2d(64, 64, kernel_size=(3, 3), stride=(1, 1), padding=(1, 1), bias=False)\n","  (13): BatchNorm2d(64, eps=1e-05, momentum=0.1, affine=True, track_running_stats=True)\n","  (14): Conv2d(64, 64, kernel_size=(3, 3), stride=(1, 1), padding=(1, 1), bias=False)\n","  (15): BatchNorm2d(64, eps=1e-05, momentum=0.1, affine=True, track_running_stats=True)\n","  (16): ReLU(inplace)\n","  (17): Conv2d(64, 64, kernel_size=(3, 3), stride=(1, 1), padding=(1, 1), bias=False)\n","  (18): BatchNorm2d(64, eps=1e-05, momentum=0.1, affine=True, track_running_stats=True)\n","  (19): Conv2d(64, 128, kernel_size=(3, 3), stride=(2, 2), padding=(1, 1), bias=False)\n","  (20): BatchNorm2d(128, eps=1e-05, momentum=0.1, affine=True, track_running_stats=True)\n","  (21): ReLU(inplace)\n","  (22): Conv2d(128, 128, kernel_size=(3, 3), stride=(1, 1), padding=(1, 1), bias=False)\n","  (23): BatchNorm2d(128, eps=1e-05, momentum=0.1, affine=True, track_running_stats=True)\n","  (24): Conv2d(64, 128, kernel_size=(1, 1), stride=(2, 2), bias=False)\n","  (25): BatchNorm2d(128, eps=1e-05, momentum=0.1, affine=True, track_running_stats=True)\n","  (26): Conv2d(128, 128, kernel_size=(3, 3), stride=(1, 1), padding=(1, 1), bias=False)\n","  (27): BatchNorm2d(128, eps=1e-05, momentum=0.1, affine=True, track_running_stats=True)\n","  (28): ReLU(inplace)\n","  (29): Conv2d(128, 128, kernel_size=(3, 3), stride=(1, 1), padding=(1, 1), bias=False)\n","  (30): BatchNorm2d(128, eps=1e-05, momentum=0.1, affine=True, track_running_stats=True)\n","  (31): Conv2d(128, 128, kernel_size=(3, 3), stride=(1, 1), padding=(1, 1), bias=False)\n","  (32): BatchNorm2d(128, eps=1e-05, momentum=0.1, affine=True, track_running_stats=True)\n","  (33): ReLU(inplace)\n","  (34): Conv2d(128, 128, kernel_size=(3, 3), stride=(1, 1), padding=(1, 1), bias=False)\n","  (35): BatchNorm2d(128, eps=1e-05, momentum=0.1, affine=True, track_running_stats=True)\n","  (36): Conv2d(128, 128, kernel_size=(3, 3), stride=(1, 1), padding=(1, 1), bias=False)\n","  (37): BatchNorm2d(128, eps=1e-05, momentum=0.1, affine=True, track_running_stats=True)\n","  (38): ReLU(inplace)\n","  (39): Conv2d(128, 128, kernel_size=(3, 3), stride=(1, 1), padding=(1, 1), bias=False)\n","  (40): BatchNorm2d(128, eps=1e-05, momentum=0.1, affine=True, track_running_stats=True)\n","), Sequential(\n","  (0): Conv2d(128, 256, kernel_size=(3, 3), stride=(2, 2), padding=(1, 1), bias=False)\n","  (1): BatchNorm2d(256, eps=1e-05, momentum=0.1, affine=True, track_running_stats=True)\n","  (2): ReLU(inplace)\n","  (3): Conv2d(256, 256, kernel_size=(3, 3), stride=(1, 1), padding=(1, 1), bias=False)\n","  (4): BatchNorm2d(256, eps=1e-05, momentum=0.1, affine=True, track_running_stats=True)\n","  (5): Conv2d(128, 256, kernel_size=(1, 1), stride=(2, 2), bias=False)\n","  (6): BatchNorm2d(256, eps=1e-05, momentum=0.1, affine=True, track_running_stats=True)\n","  (7): Conv2d(256, 256, kernel_size=(3, 3), stride=(1, 1), padding=(1, 1), bias=False)\n","  (8): BatchNorm2d(256, eps=1e-05, momentum=0.1, affine=True, track_running_stats=True)\n","  (9): ReLU(inplace)\n","  (10): Conv2d(256, 256, kernel_size=(3, 3), stride=(1, 1), padding=(1, 1), bias=False)\n","  (11): BatchNorm2d(256, eps=1e-05, momentum=0.1, affine=True, track_running_stats=True)\n","  (12): Conv2d(256, 256, kernel_size=(3, 3), stride=(1, 1), padding=(1, 1), bias=False)\n","  (13): BatchNorm2d(256, eps=1e-05, momentum=0.1, affine=True, track_running_stats=True)\n","  (14): ReLU(inplace)\n","  (15): Conv2d(256, 256, kernel_size=(3, 3), stride=(1, 1), padding=(1, 1), bias=False)\n","  (16): BatchNorm2d(256, eps=1e-05, momentum=0.1, affine=True, track_running_stats=True)\n","  (17): Conv2d(256, 256, kernel_size=(3, 3), stride=(1, 1), padding=(1, 1), bias=False)\n","  (18): BatchNorm2d(256, eps=1e-05, momentum=0.1, affine=True, track_running_stats=True)\n","  (19): ReLU(inplace)\n","  (20): Conv2d(256, 256, kernel_size=(3, 3), stride=(1, 1), padding=(1, 1), bias=False)\n","  (21): BatchNorm2d(256, eps=1e-05, momentum=0.1, affine=True, track_running_stats=True)\n","  (22): Conv2d(256, 256, kernel_size=(3, 3), stride=(1, 1), padding=(1, 1), bias=False)\n","  (23): BatchNorm2d(256, eps=1e-05, momentum=0.1, affine=True, track_running_stats=True)\n","  (24): ReLU(inplace)\n","  (25): Conv2d(256, 256, kernel_size=(3, 3), stride=(1, 1), padding=(1, 1), bias=False)\n","  (26): BatchNorm2d(256, eps=1e-05, momentum=0.1, affine=True, track_running_stats=True)\n","  (27): Conv2d(256, 256, kernel_size=(3, 3), stride=(1, 1), padding=(1, 1), bias=False)\n","  (28): BatchNorm2d(256, eps=1e-05, momentum=0.1, affine=True, track_running_stats=True)\n","  (29): ReLU(inplace)\n","  (30): Conv2d(256, 256, kernel_size=(3, 3), stride=(1, 1), padding=(1, 1), bias=False)\n","  (31): BatchNorm2d(256, eps=1e-05, momentum=0.1, affine=True, track_running_stats=True)\n","  (32): Conv2d(256, 512, kernel_size=(3, 3), stride=(2, 2), padding=(1, 1), bias=False)\n","  (33): BatchNorm2d(512, eps=1e-05, momentum=0.1, affine=True, track_running_stats=True)\n","  (34): ReLU(inplace)\n","  (35): Conv2d(512, 512, kernel_size=(3, 3), stride=(1, 1), padding=(1, 1), bias=False)\n","  (36): BatchNorm2d(512, eps=1e-05, momentum=0.1, affine=True, track_running_stats=True)\n","  (37): Conv2d(256, 512, kernel_size=(1, 1), stride=(2, 2), bias=False)\n","  (38): BatchNorm2d(512, eps=1e-05, momentum=0.1, affine=True, track_running_stats=True)\n","  (39): Conv2d(512, 512, kernel_size=(3, 3), stride=(1, 1), padding=(1, 1), bias=False)\n","  (40): BatchNorm2d(512, eps=1e-05, momentum=0.1, affine=True, track_running_stats=True)\n","  (41): ReLU(inplace)\n","  (42): Conv2d(512, 512, kernel_size=(3, 3), stride=(1, 1), padding=(1, 1), bias=False)\n","  (43): BatchNorm2d(512, eps=1e-05, momentum=0.1, affine=True, track_running_stats=True)\n","  (44): Conv2d(512, 512, kernel_size=(3, 3), stride=(1, 1), padding=(1, 1), bias=False)\n","  (45): BatchNorm2d(512, eps=1e-05, momentum=0.1, affine=True, track_running_stats=True)\n","  (46): ReLU(inplace)\n","  (47): Conv2d(512, 512, kernel_size=(3, 3), stride=(1, 1), padding=(1, 1), bias=False)\n","  (48): BatchNorm2d(512, eps=1e-05, momentum=0.1, affine=True, track_running_stats=True)\n","), Sequential(\n","  (0): BatchNorm2d(512, eps=1e-05, momentum=0.1, affine=True, track_running_stats=True)\n","  (1): ReLU()\n","  (2): Conv2d(512, 1024, kernel_size=(3, 3), stride=(1, 1), padding=(1, 1))\n","  (3): ReLU(inplace)\n","  (4): Conv2d(1024, 512, kernel_size=(3, 3), stride=(1, 1), padding=(1, 1))\n","  (5): ReLU(inplace)\n","  (6): Conv2d(512, 1024, kernel_size=(1, 1), stride=(1, 1))\n","  (7): PixelShuffle(upscale_factor=2)\n","  (8): ReplicationPad2d((1, 0, 1, 0))\n","  (9): AvgPool2d(kernel_size=2, stride=1, padding=0)\n","  (10): ReLU(inplace)\n","  (11): BatchNorm2d(256, eps=1e-05, momentum=0.1, affine=True, track_running_stats=True)\n","  (12): Conv2d(512, 512, kernel_size=(3, 3), stride=(1, 1), padding=(1, 1))\n","  (13): ReLU(inplace)\n","  (14): Conv2d(512, 512, kernel_size=(3, 3), stride=(1, 1), padding=(1, 1))\n","  (15): ReLU(inplace)\n","  (16): ReLU()\n","  (17): Conv2d(512, 1024, kernel_size=(1, 1), stride=(1, 1))\n","  (18): PixelShuffle(upscale_factor=2)\n","  (19): ReplicationPad2d((1, 0, 1, 0))\n","  (20): AvgPool2d(kernel_size=2, stride=1, padding=0)\n","  (21): ReLU(inplace)\n","  (22): BatchNorm2d(128, eps=1e-05, momentum=0.1, affine=True, track_running_stats=True)\n","  (23): Conv2d(384, 384, kernel_size=(3, 3), stride=(1, 1), padding=(1, 1))\n","  (24): ReLU(inplace)\n","  (25): Conv2d(384, 384, kernel_size=(3, 3), stride=(1, 1), padding=(1, 1))\n","  (26): ReLU(inplace)\n","  (27): ReLU()\n","  (28): Conv2d(384, 768, kernel_size=(1, 1), stride=(1, 1))\n","  (29): PixelShuffle(upscale_factor=2)\n","  (30): ReplicationPad2d((1, 0, 1, 0))\n","  (31): AvgPool2d(kernel_size=2, stride=1, padding=0)\n","  (32): ReLU(inplace)\n","  (33): BatchNorm2d(64, eps=1e-05, momentum=0.1, affine=True, track_running_stats=True)\n","  (34): Conv2d(256, 256, kernel_size=(3, 3), stride=(1, 1), padding=(1, 1))\n","  (35): ReLU(inplace)\n","  (36): Conv2d(256, 256, kernel_size=(3, 3), stride=(1, 1), padding=(1, 1))\n","  (37): ReLU(inplace)\n","  (38): ReLU()\n","  (39): Conv2d(256, 512, kernel_size=(1, 1), stride=(1, 1))\n","  (40): PixelShuffle(upscale_factor=2)\n","  (41): ReplicationPad2d((1, 0, 1, 0))\n","  (42): AvgPool2d(kernel_size=2, stride=1, padding=0)\n","  (43): ReLU(inplace)\n","  (44): BatchNorm2d(64, eps=1e-05, momentum=0.1, affine=True, track_running_stats=True)\n","  (45): Conv2d(192, 96, kernel_size=(3, 3), stride=(1, 1), padding=(1, 1))\n","  (46): ReLU(inplace)\n","  (47): Conv2d(96, 96, kernel_size=(3, 3), stride=(1, 1), padding=(1, 1))\n","  (48): ReLU(inplace)\n","  (49): ReLU()\n","  (50): Conv2d(96, 384, kernel_size=(1, 1), stride=(1, 1))\n","  (51): PixelShuffle(upscale_factor=2)\n","  (52): ReplicationPad2d((1, 0, 1, 0))\n","  (53): AvgPool2d(kernel_size=2, stride=1, padding=0)\n","  (54): ReLU(inplace)\n","  (55): Lambda()\n","  (56): MergeLayer()\n","  (57): Conv2d(99, 49, kernel_size=(3, 3), stride=(1, 1), padding=(1, 1))\n","  (58): ReLU(inplace)\n","  (59): Conv2d(49, 99, kernel_size=(3, 3), stride=(1, 1), padding=(1, 1))\n","  (60): ReLU(inplace)\n","  (61): MergeLayer()\n","  (62): Conv2d(99, 2, kernel_size=(1, 1), stride=(1, 1))\n",")], add_time=True, silent=False)"]},"metadata":{"tags":[]},"execution_count":51}]},{"cell_type":"code","metadata":{"id":"IouEMBEiR_F7","colab_type":"code","outputId":"799cb566-15e1-47d6-bc25-e7a276fd9846","executionInfo":{"status":"ok","timestamp":1563912618674,"user_tz":-180,"elapsed":3037,"user":{"displayName":"Dmitriy Slabuhin","photoUrl":"","userId
…
